model.pth (torch_old, 134176 bytes, 11 tensors)

embedding.weight f4 [47, 50]
00000000: 814c aa3f 7761 4f3f ceda 8ebf 120e 833e
00000010: 271a 7abf 7b9a 5f3f d6b2 383f 9e20 2a3f
00000020: 9b39 933f 8558 6ebe 028b a43e d5cb e2bf
00000030: 2ba0 383f fb08 03be 4b38 663f 51c7 523e
00000040: bfaa ddbe ace3 113f 9bdb 03be 4bfe d6bf
00000050: 3c4f 05bc 7c54 b8bf 4ce7 8dbf dc49 c0be
00000060: c521 293f e7d6 cfbe fee2 813e 37dc 173f
00000070: 76e4 4e3f c1d2 4bbf d33a 4cbf 8bfc 28bd
00000080: 1b23 313e 0af7 563f af35 b03f 3289 adbf
00000090: b947 2cbe 106a b8be 99b4 333f 5f1b 71be
000000a0: 3f27 9ebe e570 0ebf dcb7 b1bf 2b1c 25bf
000000b0: e434 d03e e6ea 82be eec7 a9be 0283 96bf
000000c0: dfcd f4bf 4d28 d4bc 4781 c7bf 9228 4e3e
000000d0: 375e 593f f137 fcbe 1ef2 0dbd e043 19bf
000000e0: 058c c33d 9a5e 6dbe eb20 853d ef3c cd3e
000000f0: 7216 38bf 81ff 13bf 65fe 143f e0f0 b93f
00000100: 0f65 93bf 2c1e 33bf e61a 0e40 b00d a0bf
00000110: ba34 d0be 39fd 04bf fba2 683f a80d e63f
00000120: 6c4e 4fbd 8661 b33e 1024 a33e 34aa 62be
00000130: f5c6 343f a9fe e23f cd50 aabf 5089 47be
00000140: c02e ef3f beed 00bf 3c20 5d3e ef42 e33f
00000150: d28e 1540 4cda 9a3f d38b aabe b831 69bf
00000160: fe4b 05bf 512f 1ebf 7efa b53e beb9 263c
00000170: e967 50bf ed63 90be 2c7e bc3d 8efc d73f
00000180: c195 873f 07e5 a8bf 4875 33bf a075 0bbe
00000190: 5ef1 f9be 8aa8 2940 95e4 48bf 84dc 673e
000001a0: 2027 63be fb21 533f 13a1 af3f 4291 6a3f
000001b0: 2dd3 04c0 6911 4a3f 00ff 083f afb9 ab3f
000001c0: df35 debf 40c7 e2be 3f79 dc3e 0d70 acbe
000001d0: eb37 15be e00f 20bf ff92 8c3e 498a 45bd
000001e0: 6528 b4bf 2c0a f5be 21ec 3abd 69a7 123f
000001f0: 3ea5 1240 fe96 b73e 8dc6 75be 38a3 03bf
00000200: 12a0 81bd 469e 1fbf ab44 6cbf eabc 0b40
00000210: 9617 59bd 77da 0e3d 9afb 4c3e 4561 3abe
00000220: 7a75 8cbf 247e 393e 134a 06bf 2e17 a63e
00000230: 5c76 d5bf 82f4 c2bf 3684 cd3e 21b8 f5bf
00000240: 51c9 9dbe 4183 fd3d 7416 acbf 289a c8bf
00000250: 8814 2abf a7b1 aebe eaf6 9d3f 48b3 b3be
00000260: 09fc afbf 3fad 35bd d097 da3e c833 89be
00000270: db9a acbf 42e8 933f 5404 033f 3228 ecbd
00000280: 58da 003f 524f ce3e 8a83 753f 0ea6 853f
00000290: 60b4 67bf f432 9fbf 6952 723f 40d2 ab3d
000002a0: ad54 4abf b77a 383f 7c36 5ebf b764 39be
000002b0: 60d6 b7be 0210 00bf 0f53 90bf 7e0a d43e
000002c0: 0db4 4ebf 87ea 82be 68fd 4c3f a524 91bf
000002d0: 2ac3 513d 6b02 053e 021a 233f 234b 173f
000002e0: 9efe 5d3f 1a06 0d3f 322e afbe e908 06bf
000002f0: b4ef 86bf 9a05 60bf 7e44 1a3f 680b d6bb
00000300: 7003 acbf 95cc 62be e1f7 923f 4e92 f3be
00000310: b122 0dc0 9906 223f 90b7 5dbe 2243 cb3f
00000320: ed5e a2be 0451 67bf 032c 013e f2e7 dd3c
00000330: c47a a1bf 1bac a9bf 1193 c3bf cb20 0cc0
00000340: a50b cb3e 998d 35bf a295 67bf 7a7c 9abe
00000350: 6284 ffbf 6500 513f 8440 68bf ed0e babf
00000360: bfd8 1bbf 4637 cb3e 18c2 db3e b04a 8e3f
00000370: 8546 c73c 004b 853f 8063 5bbf bf36 df3e
00000380: 014e a0bf ac4b 88bf 9e67 bfbe ae61 8abf
00000390: 3d20 bc3f eede 9ebe c210 053e 1894 c03f
000003a0: 950f 953e b03a 393e a5c1 7040 a447 01c0
000003b0: df88 883f 7a95 ee3d dd1b 9f3f 60df 71be
000003c0: 6a60 8e3e 8de4 d4bf 85fc 00c0 0d89 38bf
000003d0: d4fa 1cc0 49d6 7c3f 8f7e 7c3e c552 bebf
000003e0: c4d2 5c3f 03cc 0ebf eb4a 22bf 1c6a 933d
000003f0: ebf7 0ebf 5ed0 963f 12d6 a43f 0178 693f
1.3304597 0.81008095 -1.1160524 0.25596672 -0.97696155 0.87345093 0.7214788 0.6645602
1.1501955 -0.23275955 0.32137305 -1.7718455 0.72119397 -0.12796395 0.89929646 0.20583846
-0.4329433 0.56988025 -0.12876742 -1.6796354 -0.008136567 -1.4400783 -1.1086211 -0.3755635
0.66067153 -0.40593645 0.25368494 0.59320396 0.80817354 -0.7961846 -0.7977726 -0.04125647
0.17298548 0.839707 1.3766383 -1.3557494 -0.16824235 -0.3601842 0.70197445 -0.23545597
-0.30889317 -0.55641013 -1.3884234 -0.64496106 0.40665352 -0.25569838 -0.33160347 -1.175873
-1.9125327 -0.025898123 -1.5586327 0.20132664 0.84909385 -0.4926143 -0.03465473 -0.59869194
0.09548191 -0.23180619 0.06500419 0.4008555 -0.7190925 -0.57811743 0.58200675 1.4526634
-1.1515216 -0.69967914 2.2203918 -1.2504177 -0.40665227 -0.5194889 0.9087369 1.7972918
-0.0506119 0.35035342 0.3186345 -0.2213524 0.70616084 1.7733966 -1.3305908 -0.19485974
1.8686142 -0.50362766 0.21594328 1.7754802 2.336842 1.2097869 -0.33309802 -0.9109149
-0.5206908 -0.6179095 0.35542673 0.01017612 -0.81408554 -0.28201237 0.09203753 1.6873949
1.0592576 -1.3194894 -0.7010083 -0.13619089 -0.4881696 2.6509118 -0.7847379 0.22642714
-0.22182894 0.82473725 1.3721031 0.91627896 -2.0753891 0.78932816 0.535141 1.3416041
-1.736019 -0.4429264 0.43061253 -0.33679238 -0.14572112 -0.62524223 0.274559 -0.048227582
-1.4074827 -0.47859323 -0.045635346 0.572867 2.2913356 0.35857385 -0.24001522 -0.5142093
-0.06329359 -0.6235088 -0.9229228 2.1834054 -0.05300101 0.034876313 0.20017853 -0.18201168
-1.0973351 0.18114525 -0.5245678 0.3243956 -1.6676745 -1.5230868 0.4013993 -1.9196817
-0.30817655 0.1237855 -1.3444352 -1.5672045 -0.6643758 -0.34119913 1.2340977 -0.35097718
-1.374879 -0.044354673 0.4269395 -0.26797318 -1.3484758 1.1555254 0.5117848 -0.11531104
0.50333166 0.40294892 0.9590384 1.0441301 -0.90509605 -1.2437425 0.94657 0.083897114
-0.79035455 0.7206225 -0.86801887 -0.18104826 -0.35905743 -0.50024426 -1.1275347 0.41414255
-0.80743486 -0.25569555 0.8007417 -1.1339308 0.051211514 0.12989204 0.6371156 0.59099025
0.8671664 0.55087435 -0.34214932 -0.52357346 -1.0541902 -0.8750855 0.6026076 -0.0065321214
-1.3438549 -0.22148354 1.1481897 -0.4757256 -2.2052424 0.6329132 -0.21652055 1.5879862
-0.31713048 -0.90357995 0.12614445 0.02708814 -1.261559 -1.3255647 -1.5279256 -2.1895015
0.39657322 -0.70919186 -0.90462697 -0.30173093 -1.9962275 0.81641227 -0.90723443 -1.4535805
-0.60877603 0.39690608 0.4292152 1.1116543 0.024325619 1.0413513 -0.856987 0.43596455
-1.2523805 -1.0648093 -0.3738374 -1.081106 1.4697338 -0.31029457 0.12994674 1.5045195
0.2911345 0.18088794 3.7618191 -2.0199976 1.066677 0.11649604 1.2430378 -0.23620367
0.27807933 -1.6632248 -2.0154126 -0.7208412 -2.4528093 0.98764473 0.24657653 -1.4869009
0.862591 -0.5578005 -0.63395566 0.07197973 -0.5584704 1.1782339 1.2877829 0.91198736

gru.weight_ih_l0 f4 [150, 50]
00000000: aa2b 0c3e ac47 afbe 4b6e 9abd c360 cebc
00000010: 75f5 84be 5e21 8e3e 3c5b 90bd 3bc2 b5be
00000020: ceca 293e 5129 3dbe 9895 11bc a999 a53e
00000030: 8097 483e ec37 3ebe e6d8 d13c 67a4 5fbd
00000040: f475 79be ec7d a43e fe83 a13e 854f babd
00000050: bb9f 553d 0439 42be c61c 79be 971b 593e
00000060: c459 65ba 18f7 4abd 8cd3 633e b402 75be
00000070: 686a b9bd 62d1 623e a203 333d 4d7d 59be
00000080: 149e e3be 96f1 d3bc 93b1 4bbe 17f5 3e3d
00000090: 6922 cd3d bdee 2abe 9972 d53e 9f94 64be
000000a0: a2ca cbbc 22e3 93be 15d8 5fbc 2394 103e
000000b0: 765f 353d 5636 4dbe 9119 91be c3b3 393e
000000c0: 1bb0 01be 24e6 613e 873e 243e 34b6 2bbd
000000d0: 5570 3abe db11 1e3e 9c6b e83d a42a babd
000000e0: 2e58 8abd 7030 ddbd c24a 8d3e 07a8 273e
000000f0: 271b 483e 2a6d 783d 5f57 b1bd aa66 c23e
00000100: 0c70 3fbd 72ba 713c a61c 923e c782 213e
00000110: feb9 0fbd 8f52 143e 30af 91be 8e85 b1bd
00000120: ce0d f1bd 3b9b 83be c88d 33be 66b8 e63e
00000130: 3bf1 e23c c9c2 55be 03df 2c3f f545 33be
00000140: bc71 5b3e 90bc 15bd 7a6f 233e 716c 263d
00000150: a1d6 8abd 26af 8b3d 60e2 423d c003 93bd
00000160: 727a 85be bef6 3c3e 493c ac3d 0a7b 1ebc
00000170: ce95 273e 70b9 91bc 00af 48bc 6df5 2ebe
00000180: 4204 58be c067 12be 3680 c9bd de6d 163e
00000190: d48c 1b3e aefe 61be 7c0d da3d 2447 5e3e
000001a0: e0e6 86be 41de 9fbd 53b8 32be 8cb5 87be
000001b0: 52cf a4bd 8b5c d5bd c1a9 cbbe d76f e0bd
000001c0: 41cb 1dbe c191 153d 5129 3ebe a686 943e
000001d0: d2bf 98be 7c0a 13bd c337 2dbe 815b 45be
000001e0: 409c c03e 83cf 4c3e 1e81 d6bd 105f 25be
000001f0: 6b3e 253e 3fc8 9c3e 3984 a3bc 9092 2e3d
00000200: 6a53 05bd d118 463e f1e3 253d d20c 3c3b
00000210: 3156 583d f58c 1e3e 92cd 0f3e 066c 643e
00000220: 3303 673e a03e 853e a1de 393e 15df aebd
00000230: 5c50 9abd 8603 e9bd 17f6 a53e 711d 933d
00000240: 97ec 87be b9b4 97bc 1153 fabd 927b 9ebe
00000250: 84b1 ddbd d064 333d 053b bfbc 04fb 95be
00000260: f14a 803e 2df1 13bb b27d 303b ae17 a6be
00000270: 4092 0bbe 4507 0dbc 6f51 6f3e 1f0a 9abb
00000280: 40ec 94bb f8d8 f13d 5ec3 9e3e 265d 1e3e
00000290: 7fcc 3ebe b4b2 d0bd 08f9 8abe 1a51 0d3e
000002a0: c932 2abd e870 51be b4a1 a63d fd6a b5bc
000002b0: 8e7d 31bc 1deb 123e 4ff9 d13e 289e b63e
000002c0: 5d94 d1bc 2612 9a3d a9f1 263d 465d 32bd
000002d0: 6f1f 8f3e d266 353d 49e1 f6bd f087 633e
000002e0: 299b 203e e340 233d a5d7 bdbc 6908 a4be
000002f0: 0c59 753d 20cf e7bd 0e67 91be 36d1 08bc
00000300: c905 f9bd a76a fd3c 626a 32be 5ae3 193e
00000310: 3874 40bd 8840 bbbe fffb 8dbe a1ab 503e
00000320: 78c6 66be 5da1 93be 055d 4e3d c67f febd
00000330: 209b 21be 6f3a c1be 13d7 90be e3f6 95be
00000340: fcfe fcbd 9496 f6bd fc63 08be ce7c bf3d
00000350: df65 a83d dac7 313e 372f 4abe b2c1 213e
00000360: 7179 8cbe 93d5 1bbe 9520 cebd 88cc 063e
00000370: 0f96 063f 08c8 3c3e 538e 6dbe 1864 30bc
00000380: 39d9 303d c1fb 45be eac8 063e 3b51 563e
00000390: 1cd2 41be 842e a33c ab55 0e3e 6dd4 aabd
000003a0: d338 22be 7b01 ed3d eb39 ba3c cb7c 563e
000003b0: 0ecd 703e 9005 75bd 87d1 c43d 4f42 afbe
000003c0: 9a35 b63d 880b 43be 7d0f 073e d156 8dbd
000003d0: b397 8b3c d9e0 953e ec38 a53b 62b0 a6be
000003e0: b137 8abe 2ae4 9bbd 6fcb dabd b095 81be
000003f0: f91d 643e 2ab4 54be 5f1c ccbe 33a1 31be
0.13688532 -0.3423437 -0.07540568 -0.025192624 -0.2596852 0.27759832 -0.070486516 -0.3549975
0.1658127 -0.18472792 -0.008885764 0.32343796 0.19589043 -0.1857602 0.02561612 -0.054600146
-0.24361402 0.3212732 0.31546015 -0.090971984 0.052154284 -0.18967062 -0.24327382 0.21201931
-0.0008749033 -0.049552053 0.22248667 -0.23926812 -0.090534985 0.22150186 0.043704636 -0.21239205
-0.44456542 -0.025872033 -0.19891958 0.046620455 0.10016329 -0.16692634 0.41688994 -0.2232232
-0.024876896 -0.28884226 -0.013662358 0.1411901 0.04428049 -0.20040259 -0.28339818 0.1813498
-0.12664835 0.22060448 0.16039477 -0.04192181 -0.18206914 0.15436499 0.1134865 -0.09090164
-0.067551 -0.10800254 0.27596098 0.16372691 0.19541608 0.060650982 -0.08659243 0.3796895
-0.046737716 0.014753925 0.28537482 0.15772544 -0.035089485 0.14484619 -0.2845397 -0.08668052
-0.11770211 -0.2570437 -0.17534554 0.4506256 0.027702918 -0.20875086 0.6752779 -0.17507155
0.21430105 -0.03655678 0.15960494 0.04063076 -0.067792185 0.06820516 0.04757917 -0.0717845
-0.2606998 0.184535 0.08409936 -0.0096728895 0.1636574 -0.017788619 -0.0122487545 -0.1708581
-0.21095374 -0.1429739 -0.098389074 0.14690349 0.1519044 -0.22069809 0.10647103 0.21706825
-0.2634802 -0.078060634 -0.17453127 -0.26505697 -0.08047356 -0.10418042 -0.3977795 -0.10958832
-0.15409566 0.036515955 -0.18570448 0.2900898 -0.29833847 -0.03589867 -0.16915803 -0.19273187
0.3761921 0.20001034 -0.10473846 -0.16149545 0.16137092 0.30621526 -0.01996051 0.04262024
-0.032550253 0.19345404 0.040500585 0.0028694165 0.052816574 0.15483458 0.14043263 0.22306833
0.22559814 0.26024342 0.18151332 -0.08538643 -0.075348586 -0.11377625 0.32414314 0.0718335
-0.2654769 -0.018518792 -0.12222875 -0.30953652 -0.10824874 0.043797314 -0.023343572 -0.29293072
0.25057176 -0.0022574172 0.002693039 -0.3243994 -0.13630009 -0.00860769 0.23370908 -0.0047009136
-0.0045447648 0.11808962 0.31008428 0.15465221 -0.18632697 -0.10190335 -0.2714312 0.13800469
-0.04155234 -0.20453227 0.08136311 -0.022145743 -0.010833157 0.14347501 0.4101052 0.3566754
-0.02558344 0.07522993 0.04075781 -0.043545984 0.2795367 0.04428751 -0.120546885 0.22219825
0.15684189 0.039856803 -0.023174116 -0.32037666 0.059899375 -0.11318803 -0.28398937 -0.008350661
-0.121593066 0.030934645 -0.17423394 0.15028134 -0.046985835 -0.3657267 -0.2773132 0.20377971
-0.22536647 -0.28834048 0.05038168 -0.124267146 -0.15781832 -0.37739894 -0.2828909 -0.29289922
-0.12353322 -0.12040439 -0.13319391 0.093499765 0.08222555 0.17361394 -0.19744574 0.15796545
-0.27436402 -0.15218191 -0.10064808 0.1316396 0.5257272 0.18435681 -0.23198824 -0.010766052
0.04317591 -0.19334318 0.1316258 0.20929424 -0.18927807 0.019919641 0.13899867 -0.08341298
-0.15841989 0.11572548 0.022732696 0.20946042 0.23515722 -0.059819758 0.09610277 -0.34230277
0.088969424 -0.19047368 0.13189502 -0.069013245 0.01704011 0.29273108 0.005042186 -0.32556444
-0.26995614 -0.07611878 -0.10683333 -0.25309515 0.22277059 -0.20771852 -0.39865395 -0.17346649

gru.weight_hh_l0 f4 [150, 50]
00000000: 59ea dbbd c46f eebd 141c edbd 4e0b 2fbe
00000010: f8c8 213c d615 543e 5252 663e d066 2c3e
00000020: e2dd 153e a1db 0a3e 8e55 28be add6 853d
00000030: 0f3f b7bd 8c88 053e be8c 493c 659f 76be
00000040: 8bbc 2a3e ccd2 323b 9a53 d6bd 3ddf 373d
00000050: 95e4 8fbd 3fe5 ed3c 2e2c 51be 3048 a53e
00000060: 0a5f 68bc 69c8 723e 4410 3e3e b661 93bd
00000070: cb07 e03d d5a8 793e 96a3 9fbd 5e48 c7be
00000080: 5d50 76be 62b6 cabd 694b 81be 541d 523e
00000090: dfa0 a0bd 4909 6d3e 2c54 593d 57f1 08be
000000a0: 4d59 45be c08d 0dbe 5477 36bd ef49 dc3d
000000b0: e554 83be d9e2 333e b999 843e 8096 1dbe
000000c0: 24c7 b83d d6d4 a8ba a32b 21be 4c21 6abe
000000d0: 145d 8f3e c2b4 82be b0f2 82be 6c12 993e
000000e0: 25dd 253e e740 073e 1f0a 50be 4d1f bf3e
000000f0: 6d71 153c 1bec c9bb 8d50 40be 9f3c dfbc
00000100: 7d36 343e a64a 00be 0e73 08be 19a1 6cbe
00000110: c00e 6fbb d525 a33e 103f cd38 815a a0bc
00000120: 6ffc 59bd 0170 bebe f89f 3a3e 8854 903e
00000130: b5b0 a5bd 1bcf cdbc 35ba ed3e 3b83 c3bc
00000140: f51e 9ebe b6a7 133e d733 253e 6cee 8b3a
00000150: ca6d 81bd 717b 8a3e cb2a 7e3e 6cda 863e
00000160: 7d93 c1ba 806c e23d 0348 a6be cd6e 2c3e
00000170: d235 4e3e f502 b73d e07c b43e ac06 53be
00000180: 35ad 933e 9c97 43be 1f18 ccbd 0b4e 143e
00000190: d868 b73e 532b ef3d 614d 683e e1e5 27bc
000001a0: 7037 6cbe 9841 93be dacb 8fbd 7322 6d3d
000001b0: 098c 5bbe 8681 173e f4bf 603d 5fcd f6bd
000001c0: c26f 273e f230 25be c2b2 9dbe 844a 0b3d
000001d0: 2353 92bd a944 17be 1848 403e ee56 88be
000001e0: 38d8 c6bc 856b 623e 2242 1abe c590 253e
000001f0: 3341 4bbe 7a7f 963e 7553 183e 04d7 16bc
00000200: 6af0 0cbe 6cf5 64bd 057b 36be 5ec1 96bd
00000210: bac2 553c 2de3 50be 4547 1f3e ab1b 26be
00000220: aecc 403e 8cf7 73be 0906 0d3e 377d 873d
00000230: d96a 093e 2aa4 2e3d 30e1 193c db00 69bd
00000240: 02be 7abd a582 92be 648e e03d 5045 e33d
00000250: 9393 693d 6d85 c73d 5e60 4dbd b68c e2bd
00000260: 9a4d 223c 3bfc 733e d2a7 84be 41eb 143e
00000270: 79bb 373e f389 4f3c 4b8f 443d bb04 c7be
00000280: 8af1 09be ac1f 623e 45f2 7dbe 8d08 bd3d
00000290: 2f1d 223d a222 d6bd 930a 10bd 15ce 2c3e
000002a0: b8b6 343e 5acb db3d 99bd a7be 0acd 11bd
000002b0: 1800 3a3e a5f6 203e 94e4 96bd ceb1 b13d
000002c0: 07d7 be3e 55cf 983d 4033 84bd e34e e63d
000002d0: 7ef1 edbb f465 293c 7203 48be 8490 94ba
000002e0: 3ff1 8ebe 86f7 103e 5497 853e 3bc6 b3be
000002f0: 1aeb 7a3d f9e6 12be e5f3 14bd 5651 ad3d
00000300: 140f 55bc 718c 023e 0719 61bd 8685 0f3e
00000310: 2519 943e d026 26be 8661 66bc 85f2 813e
00000320: 608a a83e e2d1 eb3d 00aa c7bd d18d 1a3e
00000330: e5b7 28be cea9 35bd cf59 3fbe 9c20 963e
00000340: faea 033c d1ee 13bd 38b0 06bd eb78 ca3d
00000350: 9b73 6a3e 9b9b 11be 0a4d d63c 6aa6 cb3d
00000360: 5c45 eabd 8109 10bd f81d 9e3e c466 ba3d
00000370: 128b 23be c839 d9bd 6bee 833e d062 0f3e
00000380: edf7 6c3d 1b42 38be dc6a a33e 947d 713d
00000390: 088b 2e3e 7d20 723d 329d 2b3e 16e8 fc3d
000003a0: bb45 86bc 4c56 213e b199 eebd c129 a13d
000003b0: 85a6 093e 5db0 95be dfc5 57bd fd54 413e
000003c0: 5409 aabc 6379 b8bd 6813 3ebe bff6 c6bd
000003d0: 4c33 8f3e 6973 6dbe d868 4bbd b733 353e
000003e0: c58b c2bd 24ce 283e c848 9e3e 8be0 073d
000003f0: 6e77 e73e fd87 efbc 0da2 243e fb48 58be
-0.10738058 -0.11642411 -0.11577621 -0.17094156 0.009874575 0.20711455 0.2249234 0.16836095
0.14635423 0.13560344 -0.16438887 0.06535087 -0.08947574 0.1304037 0.012301622 -0.24084242
0.16673486 0.002728629 -0.104651645 0.04489063 -0.070260204 0.029039977 -0.2042701 0.32281637
-0.014182815 0.23709263 0.18560892 -0.07196371 0.109389864 0.2438081 -0.077948734 -0.389224
-0.24054094 -0.09898068 -0.25252846 0.20519 -0.07843184 0.23148073 0.05305879 -0.13373314
-0.19272347 -0.13823605 -0.044547394 0.10756289 -0.25650707 0.17567004 0.2589853 -0.15389442
0.09022358 -0.0012880813 -0.15739302 -0.22864264 0.280007 -0.25528532 -0.2557578 0.29896867
0.16197641 0.13208352 -0.20316361 0.37328568 0.009121281 -0.006162179 -0.18780728 -0.027250586
0.1759891 -0.12528476 -0.1332514 -0.23108329 -0.0036477298 0.318648 9.786908e-05 -0.019574406
-0.053219255 -0.37194827 0.18225086 0.28189492 -0.08090345 -0.02512317 0.46431127 -0.023866287
-0.30882993 0.14419445 0.16133057 0.0010675914 -0.06319769 0.27047303 0.24821012 0.26338518
-0.0014768686 0.11055851 -0.32476816 0.16839142 0.20137718 0.08936111 0.35251522 -0.20608014
0.28843084 -0.19100803 -0.09965538 0.14482896 0.35822177 0.11678185 0.22685768 -0.0102476785
-0.23068023 -0.28760982 -0.070213035 0.05789418 -0.21440138 0.14795503 0.05487056 -0.1205089
0.16351226 -0.16131952 -0.30800444 0.03400661 -0.07144763 -0.14772286 0.18777502 -0.26628822
-0.024273023 0.22111328 -0.1506429 0.16168506 -0.1984909 0.29394132 0.14875586 -0.009206537
-0.13763586 -0.055898115 -0.17820366 -0.073611006 0.013046915 -0.2039916 0.15554531 -0.16221492
0.18828079 -0.238249 0.13771833 0.0661568 0.13419665 0.042637028 0.009392068 -0.05688558
-0.06121636 -0.286153 0.10964659 0.11097205 0.057025503 0.09742246 -0.05014073 -0.11061995
0.009906197 0.23826687 -0.25909287 0.14542867 0.17942609 0.012667167 0.047988217 -0.38870797
-0.13471046 0.22082394 -0.2479945 0.092301466 0.039578613 -0.104558244 -0.035166334 0.16875489
0.17647827 0.107321456 -0.3276184 -0.03559593 0.18164098 0.15719087 -0.073678166 0.08676492
0.37273428 0.074614204 -0.06455088 0.11245515 -0.007261454 0.010339249 -0.19532564 -0.0011334573
-0.2791843 0.14156923 0.26092017 -0.35112175 0.061259367 -0.14345922 -0.03636541 0.08462779
-0.013004083 0.12748887 -0.05495551 0.14015779 0.28925434 -0.16225743 -0.014061337 0.2538034
0.32918072 0.11514641 -0.09749222 0.15093161 -0.164764 -0.04435139 -0.18686603 0.29321754
0.008051628 -0.036116425 -0.0328829 0.098863445 0.22895662 -0.14219515 0.026159782 0.0994385
-0.114390105 -0.035165314 0.3088224 0.09101632 -0.1597102 -0.10606724 0.25767836 0.14002538
0.057853628 -0.17993967 0.31917465 0.05895765 0.17045224 0.059113014 0.16759184 0.123489544
-0.016390672 0.15755576 -0.11650408 0.07869292 0.13442428 -0.29236117 -0.05267894 0.18880077
-0.020756401 -0.09007528 -0.1856209 -0.09715032 0.27968824 -0.23188557 -0.049660534 0.17695509
-0.09499315 0.16484886 0.30914903 0.033173125 0.45208305 -0.029239649 0.16077442 -0.2112159

gru.bias_ih_l0 f4 [150]
00000000: 23f3 353e 2791 74bc e218 82bd ec54 173e
00000010: 8179 1f3d aa2f a3bd d147 373e c051 523e
00000020: 0740 6b3b dcb7 4d3e cf46 893d f852 423e
00000030: 8729 28bd fc27 863e 63b0 63bc 1c76 24bd
00000040: 702c 273e 8892 e23d 824d 583e 7ced d63c
00000050: 6563 943d 06f7 2b3e 70b6 763e 9add aa3d
00000060: fd9f 6a3e 670d 32bc 16c4 5d3e dd98 6f3d
00000070: 78ce 08bd 622d aabc 2363 1e3d 2b94 573d
00000080: a1d0 433e 42fe 2e3e 1d3d e53d 646c 793e
00000090: 7442 61bb e51f b43c 2ff4 1dbc 92bd c6bb
000000a0: ab40 0e3e aa77 783e 07d3 3e3e 81b3 d83b
000000b0: 6413 943e 2995 9c3d 215c 763e 82e0 823e
000000c0: 0590 a3bc eee4 87bc 28ea 16be e521 ddbd
000000d0: df15 6a3d 7362 b0be 889c 0bbe 1892 6a3a
000000e0: ab84 e13d 0fdb 47be f542 73be f897 79be
000000f0: 901e e23d 0d2f 6bbd 428b 41be d978 9dbe
00000100: bdfb a5be 8803 36be 0119 8cbe a98e 34be
00000110: 3d08 e9bd 6e86 703d d1cd 08be 7a93 6cbe
00000120: bb02 5cbc 4d7a b0bd b622 a8bd ae7b 3fbe
00000130: c433 47be 88fb 35be 89b0 2a3d ded6 d9bd
00000140: 06eb febd 0e83 033d ad76 10be ce44 6abe
00000150: b24b d5be 67b8 1dbe e80e b7bb 596c 143d
00000160: a288 083d bfaf 99be 9e15 38be 5c0f ddbd
00000170: 6ef2 2dbe 019b 2dbe d6a3 77be a9d7 e13d
00000180: fbd4 bcbe 7ad0 9bbd afe8 1cbc bdd5 0dbe
00000190: 0e89 a13d 4ae8 5c3a d8ae e73d 2418 e0bb
000001a0: 9f47 e23c ce22 04be 96de c6bd 8d8c ac3d
000001b0: 33f4 16bd c3b2 64bd dcc7 6bbd 4dad dd3d
000001c0: e75b c53d f9c9 06be e562 10be 6c1e f93d
000001d0: 7b04 153c c032 aa3d a18d 3f3d a1ae 0c3e
000001e0: 507d 9d3d 6996 03be dc8c 3b3d 6ec7 9f3d
000001f0: 84c9 813c 02bf 113e e9ff 923d 3bb8 3e3d
00000200: 151a 483d b917 e73d aad6 1e3d 6e15 f0bd
00000210: 0130 b93d 1828 9e3c 9ee9 363d ccc2 003e
00000220: 9f70 aebb 0638 f8bd 4570 12bd 6426 d0bb
00000230: 461e 21bd 96e7 5c3c 899f 04be 6eb5 cbbd
00000240: d2cb 913d 7010 a83d 95c2 9dbd 28db fdbd
00000250: 88cb d6bc a6f2 f13d
0.1776853 -0.014927185 -0.06352402 0.14778489 0.038934235 -0.079680756 0.1789849 0.20538998
0.0035896318 0.20089668 0.06702959 0.18976963 -0.04105523 0.2620238 -0.013897034 -0.0401517
0.16325545 0.11063105 0.21123317 0.026236288 0.072455205 0.1679345 0.24093032 0.083430484
0.22912593 -0.010867453 0.21656832 0.05849539 -0.03340003 -0.020773593 0.038668763 0.05263154
0.19122554 0.17089179 0.11193297 0.24357754 -0.0034371885 0.021987865 -0.009640737 -0.006065079
0.13891856 0.24264398 0.18635188 0.0066131954 0.28921044 0.076456375 0.24058582 0.2556191
-0.019966135 -0.016588654 -0.14737761 -0.107974805 0.057149764 -0.3445011 -0.1363393 0.0008948161
0.110116325 -0.19517158 -0.23756011 -0.24374378 0.110409856 -0.057417918 -0.18900779 -0.30756262
-0.32418624 -0.17774785 -0.27362826 -0.17632546 -0.113785245 0.058721952 -0.13359763 -0.23103133
-0.013428385 -0.08617077 -0.082097456 -0.18699524 -0.19453341 -0.17771733 0.041672263 -0.10636686
-0.12447171 0.032107405 -0.14107771 -0.2287781 -0.41659313 -0.15402375 -0.0055864938 0.03623614
0.03333343 -0.30016896 -0.17976996 -0.10793945 -0.16987011 -0.1695366 -0.24183592 0.11027462
-0.3688124 -0.07608123 -0.0095769605 -0.13851066 0.07887469 0.0008426948 0.11312646 -0.0068388153
0.027622042 -0.12903902 -0.09710424 0.084252454 -0.03685398 -0.055834543 -0.057563648 0.1082407
0.096366696 -0.13162984 -0.14100225 0.12164006 0.0090953065 0.08310461 0.046765927 0.1373849
0.07689917 -0.12850346 0.04578863 0.0780171 0.01584316 0.1423302 0.07177717 0.046562415
0.048853 0.112838216 0.03877894 -0.117228374 0.09042359 0.019306228 0.04465639 0.12574309
-0.005323484 -0.121200606 -0.0357516 -0.006352233 -0.03933551 0.013482949 -0.12951483 -0.09946714
0.07118954 0.0820626 -0.07703129 -0.12395316 -0.026220098 0.1181386

gru.bias_hh_l0 f4 [150]
00000000: 634c bc3d 94e7 06bd 1a80 2c3e f4d7 0f3e
00000010: e41a 703d 38ef 5dbd 7a2b f23d 8b2b 8bbd
00000020: 859f b53d 3a15 5e3e 596b 203d 4252 d03d
00000030: 2847 dc3d eb62 393e 3ec0 9a3d b8de 19be
00000040: 51f1 723e db30 f83d bc2e 3d3e dc90 fe3d
00000050: e16c abbc e2af 923e 657e 853e 0290 333d
00000060: c9fa 3f3e d35a 443e 9a9c 0f3e 6c03 32bd
00000070: 08f3 a0bb 999e 9e3d b76c 053e a95b 323e
00000080: cda8 343e d48d ef3d a04e d93d 70f0 203c
00000090: d096 5e3e 592d ac3d 17c5 483d 1e2d 943d
000000a0: 7554 b83d baea 603e 81c4 0b3e 7ec5 3bbd
000000b0: e82e 893e 40d0 543e fcf7 df3d d7ab 4d3e
000000c0: 3e52 693d 409b 3c3e ca6e fbbd a72c a33a
000000d0: 9814 2dbe 9ee9 abbe b245 8fbe 5ec7 28be
000000e0: 97f9 643d 68f3 3ebe 392c 4ebe 0613 7abe
000000f0: 0585 033e 964f 65be f46e 2dbe 7afd 19be
00000100: 20b0 b4bd 0d88 b73d 8dd2 31be f616 9bbd
00000110: 09cc dcbd 246c 29be 866d febd 2c0d 32be
00000120: f2a3 e8bd d36b 19be d625 103c 4b71 1abe
00000130: a3b0 ccbd 4ffb 833d 267d ca3d a64c 14be
00000140: c5f2 aabd ce28 0d3e fa8e 7bbe 14c8 dabd
00000150: e504 cfbe c772 70be 4716 d3bc bd8b cebb
00000160: 932c 18bd d827 f9bd c1ca 80be 4929 063d
00000170: cd64 6fbd 93c5 75be ce91 8bbe e11e 0a3e
00000180: acd8 6fbe 2ad1 afbd eca1 edbd 0672 8dbe
00000190: b309 eebd 666f ca3d 1fb2 383d 2433 5dbd
000001a0: 0a6e 07be 9c3d a03c 2c44 97bd 17a4 173e
000001b0: 068a 31bd ee96 89bd 3c23 afbd 08ad 253e
000001c0: 3ef0 a0bd 263b cdbb 275a 2cbd 727c c2bd
000001d0: 1509 133e 7fe8 c93c 26d9 c73d 645a 79bc
000001e0: fe01 a03d 40aa 813d 3b8d dfbd 9a5d 7d3d
000001f0: 0078 863d fa4e 2cbd e496 f0bd 1ded ce3d
00000200: ca0a 58bb 5edd 073e b3a5 a5bd ed67 60bb
00000210: 270a fcbd 0062 0a3e 4c4d 9cbd 66d6 1bbd
00000220: 870b 053e 396b e4bd 1e21 9e3d 4198 133e
00000230: c342 253d 3279 083e f4d1 593d aa17 e03d
00000240: cb92 8d3d 5105 bebd 9aa0 a2bd e4b3 debc
00000250: afce 62bd d91d 7bbc
0.09194257 -0.032935694 0.16845742 0.14047223 0.058619395 -0.054183215 0.11824699 -0.067954145
0.088683166 0.21687785 0.039164875 0.101719394 0.107557595 0.1810414 0.075561985 -0.15026367
0.23724867 0.121186934 0.18474859 0.124299735 -0.020925941 0.28649813 0.26072994 0.04383851
0.1874801 0.19175272 0.14024583 -0.043460295 -0.004911784 0.07745094 0.13029753 0.17417778
0.17642517 0.116969734 0.106107 0.00982295 0.21737218 0.08407087 0.049016085 0.07235168
0.09000484 0.21964541 0.13649179 -0.04584264 0.267936 0.20782566 0.10935971 0.20085083
0.056963198 0.18418598 -0.12276991 0.001244922 -0.16902387 -0.33576673 -0.2798286 -0.16482303
0.05590209 -0.1864754 -0.20134057 -0.2442132 0.12843712 -0.22393641 -0.16936857 -0.150381
-0.08822656 0.089614965 -0.17365475 -0.07572739 -0.10781104 -0.16545159 -0.12423234 -0.17387837
-0.11359395 -0.14982538 0.008798083 -0.1508228 -0.09994628 0.06444418 0.098871514 -0.14482364
-0.08347086 0.13785097 -0.2456626 -0.10682693 -0.40433422 -0.23481284 -0.025767459 -0.006303279
-0.037151884 -0.12165803 -0.2515469 0.032754216 -0.05844574 -0.2400115 -0.27259678 0.13488342
-0.23422498 -0.08584817 -0.1160315 -0.27626055 -0.11622944 0.09884529 0.045091745 -0.05400385
-0.1322557 0.019560628 -0.0738605 0.14808689 -0.04334452 -0.06718241 -0.08551642 0.16179287
-0.078583226 -0.0062631546 -0.042078163 -0.09496392 0.14358933 0.024646996 0.09758215 -0.015219305
0.0781288 0.06331301 -0.109156094 0.061856844 0.06565857 -0.042067505 -0.1174753 0.101038195
-0.0032965415 0.13268039 -0.08088245 -0.0034241632 -0.12306624 0.13513947 -0.07631931 -0.038046263
0.12992679 -0.111532636 0.0772116 0.14413549 0.040346872 0.13327482 0.053178743 0.109420136
0.06912764 -0.09278358 -0.079407886 -0.027185388 -0.05537289 -0.01532694

gru.weight_ih_l1 f4 [150, 50]
00000000: 7e8c f9bc ec93 89be 59be 0a3e 9ca3 f0ba
00000010: 3706 abbd b7ab 323e fcf5 a0bd c314 b43d
00000020: 6b1d cebd 0603 013f 970d c8bd 4b52 0ebe
00000030: e021 8a3e 428d 82bd 3e04 bdbe c33b 2dbd
00000040: a89e dd3e 7b40 8dbe d6c0 363e af31 5fbc
00000050: f46f 683d bd42 453e 9feb 4fbe 8dcb 68bd
00000060: bfa7 9e3e af8d 693e 14fe 343e ef8f 5e3e
00000070: 7cc4 1dbe 507b 13b9 eb24 20bf 59fc 383d
00000080: 2255 643e 456b 933d b1a5 e6bd 7575 3cbe
00000090: 1a72 003d c1be 973e 631e 6fbe 8495 673e
000000a0: 7b6a aabd 4818 743e 77f8 a73e ed99 3fbe
000000b0: 0110 513e 81dc dabe 6e09 9f3a ee13 82be
000000c0: 9956 ebbc 8e33 b53e dbe1 0b3e 7d8f b73b
000000d0: af16 f4bd 18fd d0bd 42fc 3bbe 5023 abbd
000000e0: 494a 5e3e 8cbb dabd 4df5 58be c528 093e
000000f0: e62d 5fbe 17b3 1e3c 6068 173e d76b 26be
00000100: 3160 773e 4826 46bd abeb ac3e e0d4 00be
00000110: a00d 413e 306f 05be d696 6c3e 82f7 2e3d
00000120: 794e c5bd faf9 85bd ddad a93d c2cc ac3d
00000130: a279 593e 365b a13a 9cb6 2d3e 99a8 d3bd
00000140: 27f9 2c3c b39d 35be ac2a 1a3e 0a03 5d3d
00000150: 7194 023f fff3 cf3c 4439 be3d b609 6abd
00000160: e01e 0cbe ff73 c73d 7e8c 343d beae 653e
00000170: 84f2 0d3e d691 a83d d0ad 673e 4c16 c7bd
00000180: 6b6f d7be 8f8c ab3c bf2a 07bd 2ef2 22bd
00000190: 8070 143e ac86 043e e3e3 ffbd f830 4ebd
000001a0: 3889 38be 1d0a aebe 2f7f bcbd bb42 833d
000001b0: 403c b93d ad9e 79be a377 aebe e9ef aa3d
000001c0: 0177 69be 7c21 4ebe 921e 7dbe 5194 873c
000001d0: 6b35 30be c9b5 88bd 8b00 073e 47b8 b8be
000001e0: 7dd6 3f3d fd18 3fbe a9f7 06be 728f 113e
000001f0: 0599 debd eb54 87bd 49d2 133e d428 9a3e
00000200: 398b 13bd 443b 603e 6468 9d3d bb86 a5bd
00000210: 8ee9 a7bc aa78 a53e c633 2ebe 7b79 25be
00000220: 962f b93c 3cb4 2b3e e92c 6f3d e532 3b3b
00000230: 49b0 b8be c198 d4bb 05bc 4f3e c003 803e
00000240: 3d0b 1fbe 1981 a8bd 7f61 47bd eaf1 063e
00000250: 2caf 0e3e 46f8 773c 1627 a7bc 9356 2cbd
00000260: 3212 bb3d 34e6 babd a1ee 30be 3784 d9bd
00000270: 4874 64be d6a0 fbbe b2d7 51be 611a dd3d
00000280: ead5 adbe 84fe 533b 9e96 b73c 53e1 91be
00000290: 0777 c2be 2313 32be 6dbc 113e d85f e4bd
000002a0: 43c7 573e ad3b 9dbe 97fb 09bf f29e 953c
000002b0: 9918 59be 67ec 40be 0423 2bbd 64c2 e83d
000002c0: b78c 80bd 0aaa 7e3e d78f 0ebf 9186 013e
000002d0: ac6f 23be be8a ab3d f04e 383e 94b8 72be
000002e0: d79a 51bd 3d5e 0bbf 540a 8abd 5d72 68bd
000002f0: b21a f0bc 841a 2cbe 364b a1bd 7a7e 423e
00000300: 04fe bebc 48ac f33d 1fc8 a8bd 98b9 0dbe
00000310: e55a 093f 789f ed3b fa66 043d e73a 31bd
00000320: 9cf6 263e 6e7f 093e f8a3 183d 2573 233e
00000330: da98 93bd 9725 dabd 258b 233d 8552 3c3c
00000340: 3c25 0f3e 62db f43b 66d8 1bbe 9343 09bd
00000350: 8a41 bfbd e38f 93be ee07 993c 4fbf 0bbe
00000360: db57 69bc 02b9 3d3e d84a 073e 39b4 2abe
00000370: 0002 253d f82b 40bd 0656 753d 8047 843d
00000380: ab9b afbe 8994 7abe 8d6e 013e bb01 a43d
00000390: bf21 afbd 9035 debc 2130 833d a825 623c
000003a0: 4330 86be e4d0 ab39 7774 36be 55cb f93d
000003b0: 804c a7be 4ed3 1cbe b80b 4e3e 89ad f5bd
000003c0: 9f9b 8dbd 56a2 59be 2ad4 f5bd a381 3e3d
000003d0: 3d1a acbc 58e0 ad3d e973 bcbd 5563 7e3d
000003e0: 3ea8 1f3e 2d35 953d 4405 843e d8a8 883d
000003f0: f405 f43d 1323 ab3d d825 663d 309b cbbd
-0.0304625 -0.26870668 0.13549174 -0.0018359306 -0.08350795 0.17448317 -0.07859418 0.087930225
-0.10064205 0.5039524 -0.09768217 -0.1389858 0.2697897 -0.06374599 -0.369173 -0.04229332
0.43285108 -0.27588257 0.17846999 -0.013622685 0.05674739 0.1926374 -0.20304726 -0.056834746
0.30987355 0.22807954 0.17675048 0.21734594 -0.15406984 -0.0001406495 -0.6255633 0.045162532
0.222981 0.071981944 -0.11262072 -0.18404181 0.031358816 0.2963772 -0.23351435 0.2261563
-0.08321091 0.23837388 0.3280675 -0.18711062 0.20416261 -0.42746356 0.0012133548 -0.2540583
-0.028727816 0.35390896 0.13660376 0.005601822 -0.11918389 -0.10204524 -0.18357947 -0.08356345
0.21708025 -0.10680303 -0.21187325 0.13394459 -0.21794853 0.009686253 0.1478591 -0.16252075
0.24157788 -0.04837635 0.3377355 -0.12581205 0.18852854 -0.13030696 0.23104414 0.04271651
-0.09634108 -0.0654182 0.08285115 0.08437492 0.21237805 0.0012310508 0.16964191 -0.10334892
0.010557449 -0.17735939 0.1505534 0.053957976 0.51007754 0.025384901 0.09288266 -0.057138167
-0.13683653 0.097389214 0.044079296 0.2242994 0.13862044 0.08230941 0.22624898 -0.0972105
-0.42077193 0.020941047 -0.03299975 -0.03978174 0.1449604 0.12941998 -0.12494638 -0.05033967
-0.18021095 -0.3399209 -0.09203946 0.06409212 0.09044695 -0.24376936 -0.3407565 0.083465405
-0.22799303 -0.20129961 -0.24718693 0.016550215 -0.17207877 -0.06675298 0.13183801 -0.36078092
0.04683541 -0.18661876 -0.13180412 0.14214876 -0.1086903 -0.06607994 0.14435686 0.30109274
-0.036021445 0.21897608 0.076859266 -0.080823384 -0.02049711 0.32318622 -0.17011937 -0.16159622
0.022605699 0.16767973 0.05839244 0.002856427 -0.36071995 -0.0064879362 0.20286568 0.2500286
-0.15531631 -0.082277484 -0.048676964 0.1317822 0.1393401 0.015134877 -0.02040438 -0.04207475
0.0913433 -0.09125939 -0.1727853 -0.10620921 -0.22309983 -0.49146146 -0.20492437 0.10796047
-0.33952266 0.0032347748 0.022410687 -0.2849222 -0.37981436 -0.17390113 0.14232035 -0.11151093
0.21072106 -0.30709592 -0.5389952 0.018264268 -0.2120079 -0.1884018 -0.04178144 0.11365202
-0.06276839 0.24869552 -0.5568823 0.1264899 -0.15960568 0.08376072 0.17998862 -0.23703223
-0.051173057 -0.5444067 -0.06740251 -0.05674969 -0.029309604 -0.1680699 -0.078756735 0.1899356
-0.023314483 0.118980944 -0.08241295 -0.1384033 0.5365432 0.007251676 0.03232477 -0.043269064
0.16305012 0.13427517 0.037265748 0.15961893 -0.072068885 -0.10651701 0.03992762 0.011494284
0.13979048 0.0074724415 -0.15219268 -0.03351171 -0.093386725 -0.28820714 0.018680539 -0.13647197
-0.014242138 0.18527606 0.13212144 -0.16670312 0.04028511 -0.046916932 0.05989649 0.0645895
-0.34298453 -0.24470724 0.12639828 0.080081426 -0.085513584 -0.02712515 0.06405664 0.013802923
-0.26208696 0.00032771297 -0.17817865 0.12196986 -0.32675552 -0.15314981 0.20121658 -0.1199599
-0.06914448 -0.21253332 -0.12003358 0.04651035 -0.021008605 0.08490056 -0.092017956 0.06210645
0.15591523 0.07285533 0.25785267 0.066728294 0.11915198 0.08356299 0.056188434 -0.09941709

gru.weight_hh_l1 f4 [150, 50]
00000000: 3c90 ed3e 7e8e 8fbd 683d 723e 7a97 8e3c
00000010: 1588 a33d 4c21 09be 725f c23d 0efc b63d
00000020: 5849 6ebe 904d 763e 01c5 82be d087 0bbe
00000030: c409 a33d 836b c43c 48f7 83bd b635 18be
00000040: 51e5 653d 1422 f13d 62f9 18be 83d1 d43d
00000050: bc1b 523e 2927 4dbe 35b0 103d 9f0b e9bd
00000060: 2be0 913d 2f60 6c3e 75cc 60be 7631 88be
00000070: 4f88 99bd f934 103e 8b35 d6bd 4c5a dfbd
00000080: da64 74bd 0634 b63e 7724 ab3e fad4 173d
00000090: 2d44 a1bd b302 053d c5db 123e df87 4c3d
000000a0: 3ca7 403e e23e 583e 421d 213e 4bc6 10be
000000b0: b249 36be 3d20 35be 9b6a abbc 478e 43be
000000c0: cba8 31be 9d1c 113d 326e b5bd ed02 76bc
000000d0: e41b 79bd c8ad df3d 16fb 54ba 4a6f 223d
000000e0: 8a25 65bc efa2 723e 7237 a6bc c933 6fbd
000000f0: 10cf 2a3d 2c01 e03b 3b92 3b3e fb4e 91be
00000100: 42ef 753e cce9 693e ce87 a13b 5753 0bbe
00000110: 895e 67be 3dd7 98be edd1 563d dd3b 2abe
00000120: 164d f6bd a942 c8bd 10ca 703d 2868 bf3c
00000130: 869a a93d 0e60 483d 3a0a ba3c 147f 153e
00000140: 69d6 bebd d8ee cb3d e5d8 eb3d 4ba4 3c3e
00000150: 6873 e3bd 7872 40be ab19 d93d 171f 8e3e
00000160: b3b4 023e 24dd 333c f668 24be 737a 28be
00000170: cfdc 203e d2c4 4d3e f868 d23d ead0 9dbe
00000180: 4267 363e 3a73 bc3e d817 443d b31c 75bd
00000190: 3ebb 55be 4641 ccbd 6152 623d 3d21 163e
000001a0: f491 363e 1738 09bd f85c d7bc b86f a23d
000001b0: 6cfc d23e a7e9 4dbd 132d 833e 4c18 01be
000001c0: ccb2 c03d c2e7 66be 6657 2b3e c094 ba3b
000001d0: 700b 8d3d 18d2 b83d b724 b33d b25f b1bd
000001e0: b84b 92ba a193 383e 3f85 8dbc ee57 053c
000001f0: 0965 0ebe 7976 c33d f04f 4f3e 8be3 0f3d
00000200: 18b6 e83d 7c5b 463d 44bf 0abd e691 993d
00000210: 39fa 97bc 47ff b43d 17c9 703d e014 d23c
00000220: 2d74 37bc c234 1b3d c5cc d73d d3e6 b63c
00000230: b71a bbbd 66e6 2e3d 62ad ccbe 4a5b 32bd
00000240: b44e 893d 6518 123d 9320 0c3e 3309 ffbb
00000250: 8bd4 fbbd b3ce 76bd 3b39 ea3b f3ea 12bd
00000260: 9524 8b3c 2235 1b3e ca5d 173e 1bea d3bd
00000270: 8c89 9a3c 4353 b13d 6acd 703d 99ad 5dbe
00000280: 905e a23d 850e aa3d 7829 8d3e ac55 2d3e
00000290: 650d 8a3d ef02 053d 1f85 823d 93ee adbd
000002a0: 45c1 79be 465c 0cbe 829a 363e 04f0 013e
000002b0: 3b8e a3bd 29a6 353e 9d4e 68be dcdc ffbd
000002c0: 59c9 b13e e7b8 123e 65bf 8d3d b8a7 713e
000002d0: fd46 c2be f897 00be 4840 473d f622 0c3e
000002e0: f446 30be 0315 9dbe ddb5 fb3c e2f1 a8bd
000002f0: ba50 b73d d30f afbd 5db8 2ebe da7b abbd
00000300: 82ad 50be bc93 133e e7e5 6a3d 1bd2 71bc
00000310: 6f7e 603e 06b4 883e 2c6c 4dbe d665 e53d
00000320: 7700 c2be 2f53 d93d 3283 f0bd 062c a4bd
00000330: 54da 0abe 40b7 1fbd 151c 48bd 9965 a33d
00000340: b9b2 293e 7251 2fbc b92d 1e3e c9fe a4bc
00000350: c3af 413d 57b3 8cbd 1e8b 18bd 7554 00be
00000360: 0a63 ef3d e53a 80bd b3bf a83d 32fc 85ba
00000370: cbb0 eabd 846e 3f3e 0636 b7bd 520d 033e
00000380: 3443 1fbe 509c 1b3e 19a9 523e 83b8 2f3e
00000390: 4974 84bb 0ecd 35bd dd38 46be 721e ccbc
000003a0: 91ba 583e c0ee 463b 03e5 56be 6b6a 9abd
000003b0: 629d dd3d af3e 53bd 9c46 3fbe a50c 81bd
000003c0: 4a43 51be 8037 893d 3619 82be 2097 2cbe
000003d0: b5bb a63c 383c 45bb 400a 853c 6cf7 1f3d
000003e0: ffd3 b63d 7cde d13b 21a2 1abe 114b 81bc
000003f0: a070 14be 0193 88bd 68b9 9a3e c9f2 a2bd
0.46399105 -0.070096 0.23656237 0.017406214 0.0798494 -0.13391608 0.09490861 0.08934794
-0.23270166 0.24053025 -0.25540927 -0.13626027 0.07960847 0.023977047 -0.064436495 -0.14864239
0.056126896 0.11774078 -0.14938882 0.10391524 0.20518392 -0.2003447 0.035324294 -0.1137917
0.07122835 0.23083566 -0.21952994 -0.26600236 -0.07496702 0.14082707 -0.10459431 -0.10905895
-0.059666492 0.35586566 0.33426258 0.037068345 -0.078743316 0.032473277 0.14341648 0.049934264
0.18813795 0.21117738 0.15733817 -0.14138143 -0.1780155 -0.17688079 -0.020924857 -0.19097243
-0.17349546 0.03542768 -0.08858909 -0.015015346 -0.060817614 0.10921818 -0.0008124573 0.039656915
-0.013986001 0.23694967 -0.02029011 -0.058398996 0.041701376 0.006836077 0.18317501 -0.2838057
0.24017051 0.22843093 0.0049295193 -0.1360601 -0.22594656 -0.29851714 0.052446295 -0.16624399
-0.12026422 -0.097783394 0.05878645 0.023365095 0.08281426 0.04891973 0.022709955 0.14599258
-0.09318239 0.09957665 0.11515979 0.18422048 -0.11105996 -0.18793666 0.10600599 0.27758095
0.12764244 0.010978017 -0.16055664 -0.1645296 0.15709232 0.20094612 0.102739275 -0.3082345
0.17812827 0.3680666 0.0478743 -0.059841823 -0.20872208 -0.099733874 0.055254344 0.14661117
0.17829114 -0.033500757 -0.026289448 0.07931465 0.41208208 -0.050271656 0.25620326 -0.12606925
0.09409103 -0.22549346 0.16732559 0.005694002 0.06886947 0.09024447 0.08747237 -0.086608306
-0.0011161482 0.18025066 -0.01727545 0.00813864 -0.1390573 0.09544081 0.20245337 0.03512911
0.113628566 0.04842709 -0.03387381 0.07498531 -0.018551933 0.08837753 0.058785524 0.02564472
-0.011197132 0.03789211 0.105371036 0.022326862 -0.09135955 0.042700194 -0.3997603 -0.04354409
0.067044646 0.035667796 0.13684301 -0.007783079 -0.12296399 -0.060255717 0.0071479357 -0.035868596
0.016985217 0.15156987 0.14781871 -0.103473864 0.018864416 0.08658459 0.058789648 -0.21648254
0.079281926 0.08303551 0.275707 0.16927212 0.06740836 0.0324735 0.06373047 -0.0849277
-0.24390133 -0.13707075 0.17832378 0.12689215 -0.07986113 0.17739166 -0.22686239 -0.124932975
0.3472393 0.14328347 0.06921271 0.23599136 -0.37944785 -0.12557971 0.048645288 0.13685212
-0.17214566 -0.30680093 0.030726368 -0.082492605 0.08950944 -0.0854794 -0.17062517 -0.08373232
-0.20378688 0.14411825 0.05734816 -0.014759566 0.2192323 0.26699847 -0.20060796 0.11201064
-0.3789098 0.10611569 -0.117437735 -0.08016209 -0.13559848 -0.03899312 -0.048854906 0.079783626
0.16572084 -0.01070057 0.1544713 -0.020141022 0.04728676 -0.06870144 -0.037242047 -0.12532218
0.11688812 -0.06261233 0.08239689 -0.0010222255 -0.11459502 0.18694502 -0.08945851 0.1279805
-0.1555298 0.15196347 0.20572318 0.1716023 -0.0040421826 -0.04438501 -0.19357629 -0.024916861
0.2116492 0.0030354708 -0.20985799 -0.07539829 0.10821034 -0.05157345 -0.18679279 -0.0630124
-0.20435825 0.06700039 -0.2540986 -0.16854525 0.020353178 -0.0030095708 0.01624024 0.03905432
0.08927154 0.006404696 -0.1510091 -0.015782865 -0.14496088 -0.06668664 0.3021958 -0.07956464

gru.bias_ih_l1 f4 [150]
00000000: 0494 113e 81b1 ff3d 847e 75bd 7a53 ee3c
00000010: 45b3 863d 1884 1a3d f314 92bd 7808 19be
00000020: 7909 04bd 4c67 36bd ef14 143e 686c a6bd
00000030: a0e7 09bd 9c06 d9bd 3971 cbbd ae74 363e
00000040: 323f 1a3d b9a9 c63d f152 203e ff42 c73c
00000050: 0ee1 2d3e b8eb 893d 99f7 fd3d 77e7 5bbc
00000060: f2f0 8f3d da6e f63d 09ee cf3d d2a7 dd3d
00000070: 2824 343e ee01 e93d 632d 9a3d 17c0 9f3e
00000080: 3277 6abd 6691 1b3e 15c7 713c 35fa 11bc
00000090: fce1 523e 25cd f23c 0537 d43d 9883 993d
000000a0: b34d 67bd 1f3c 6a3e 230d 203e 0af6 743b
000000b0: f88f 5c3d 30ad 363d cdcc 453d b800 4c3d
000000c0: c82f 4a3d e75b 98bd 525e dc3c c65b fcbc
000000d0: 3ea4 17bd 9a52 ecbd 1ef5 713d 63b2 a6bc
000000e0: 5e92 563d ff59 21bd ecb8 3bbe 55e8 d9bd
000000f0: f992 78be 0b6a 853d 8605 363e c954 023d
00000100: 6cff 07bb 8a52 0bbe 1e8f d8bd 454b 67bd
00000110: 451e 51be f6de 1bbe 7843 1d3d d45b 01be
00000120: 39af 70be 9cd6 14be e0e1 463c 58b0 d2bc
00000130: d768 623c 1094 c13d d32c 243e 3eec 35be
00000140: 7b4d 98be 6d3b a9bd 2919 f8bd e747 cc3d
00000150: 521f 42be a147 e23d 5bb0 0c3e 9e06 fcbd
00000160: 224a 003e fc00 243d 4246 40bd 0900 33be
00000170: f09a e13c ef26 6f3c 20c2 de3c 423b 85be
00000180: 8023 0d3d 41bb 18bd 13b8 993d 62d1 23be
00000190: bf5d 1a3e bc6c 843d 86a4 cbbd ffbe 0b3e
000001a0: 3acc 843d 731a 9dbd f6c0 093e e290 e7bd
000001b0: 73ca f53d 276c f0bd 88d0 b8bd 4204 c1bc
000001c0: 2446 e63d 22a9 bd3c beb6 103e c892 e53d
000001d0: 7c11 cdbd 697b 8f3d 4c8d 963d 69e6 d3bd
000001e0: 3b91 84bd 2f78 413d c0ed ffbd e982 5cbd
000001f0: 500c 3e3c d8dc 8e3c 61f5 833d 7c39 da3c
00000200: bb6a 6a3c caaf a63c cf14 1f3d 7465 24bc
00000210: 8613 d2bc d6a9 4abc e9c6 f8bc dbc0 99bd
00000220: 1063 43bd a9b1 cd3d 2115 5cbc 8091 ebbc
00000230: 5a24 b13c d771 12be b74a 1b3e 78c9 453d
00000240: 782c 163d 5fdf abbd 9795 da3d ef30 30bd
00000250: b67a d53d f67b af3c
0.1421662 0.12485028 -0.059935108 0.02909254 0.06577162 0.03772363 -0.07132902 -0.14944637
-0.032235596 -0.044532105 0.1446111 -0.081261456 -0.03366816 -0.10596964 -0.09933705 0.17817947
0.037657924 0.09700341 0.1565664 0.024323938 0.16980383 0.06734413 0.12400741 -0.013421885
0.070283785 0.12032862 0.101528235 0.10823025 0.17591918 0.11377321 0.07528188 0.3120124
-0.05724258 0.15192184 0.0147569375 -0.008909752 0.20594019 0.029638836 0.10362057 0.07495803
-0.056470584 0.22874497 0.15630011 0.0037378096 0.053848237 0.04459876 0.048291016 0.049805373
0.049361974 -0.07439404 0.026900444 -0.03080548 -0.037021868 -0.115391925 0.059071653 -0.020348733
0.05238568 -0.039392468 -0.18332261 -0.10640017 -0.24274816 0.06514367 0.17775545 0.03181914
-0.0020751609 -0.13605705 -0.105741724 -0.056468267 -0.20421703 -0.15221772 0.03839442 -0.12632686
-0.23504342 -0.14534992 0.012138814 -0.025718853 0.013818941 0.09452069 0.16032724 -0.177659
-0.29746613 -0.08263288 -0.12114174 0.09974652 -0.1895726 0.110488184 0.1373915 -0.1230595
0.1252828 0.04004 -0.046942003 -0.17480482 0.0275397 0.014596685 0.027192175 -0.26021773
0.034457684 -0.037287954 0.075058125 -0.15997842 0.15074824 0.06466052 -0.0994349 0.13647078
0.064842656 -0.076710604 0.13452515 -0.11306931 0.12001505 -0.117393784 -0.09024149 -0.0235616
0.11243847 0.023151938 0.1413221 0.11209637 -0.100131005 0.070059605 0.07351169 -0.103466816
-0.06473013 0.047233757 -0.12496519 -0.053835783 0.011599615 0.01743929 0.06443287 0.026638739
0.014307673 0.020347495 0.038838204 -0.010033954 -0.025644075 -0.012369594 -0.030368285 -0.075074874
-0.047701895 0.100436516 -0.013432772 -0.028755903 0.02162378 -0.14301239 0.1516522 0.04828784
0.036663502 -0.08392214 0.10673063 -0.043015417 0.10423796 0.021421414

gru.bias_hh_l1 f4 [150]
00000000: 4985 443e d45a c03c f013 12bd 56ba 1e3d
00000010: 9166 1a3d 52a3 283d f233 743d bdcd efbd
00000020: 42b8 d33c 9569 033e 2edf 453d d269 b6bd
00000030: 8802 c1bd 12dd 0a3e 5feb 333d 00b7 373e
00000040: eb07 03bd 80e4 9c39 f035 babd 9196 c13d
00000050: 6482 cdbc 458a cc3d d251 803e 33f6 e23d
00000060: 63f5 0f3e 2d1c a33e 4d59 663d 9473 a33d
00000070: bba9 813e d6a5 7abc 7b12 953d 2378 a73e
00000080: 408d 6f3d 09f3 8f3d 6139 2bbd 9bec 2b3d
00000090: d376 003e dbee dabd c663 a33c 4e2a 1b3d
000000a0: b093 c53d cf62 4f3e 6b5c 1e3e b925 91bc
000000b0: 8228 d63d c05d bdbc eed0 8a3d ff2a 2d3d
000000c0: 7778 b0bc cf8d f23d 03ac fe3d 2e8c 563d
000000d0: 1924 b2bc 872f 0bbe b90a b2bc 74d8 13be
000000e0: a7a6 d4bd 0282 9cbe b980 fd3c e861 66be
000000f0: eb8d 52be 6c39 a539 46c9 833d 371e a03c
00000100: 82ba a4bb 6de2 85be faec 6fbd 5444 c0bb
00000110: ccd9 8fbe bc06 acbd 2d5a ba3d 2a17 bbbd
00000120: 556d 87be 6457 c3bd f006 d83c e794 2ebe
00000130: 522a eebd 60f9 5a3e 7269 1d3d 5477 3fbe
00000140: 90f5 7fbe 474c b1bd 7e34 923c 0f2f 4c3d
00000150: 1c1c a83b 87bc 083e 48b3 cf3d 0f3a f33c
00000160: fbf2 b43d 19ac bd3d 90e1 7c3c 6ed2 83be
00000170: 284e e93d 12ce ad3d f8f0 6ebe cfc1 a3bc
00000180: 7ece a93d 23ee a23d fc45 61bd 6eeb 3fbe
00000190: f78e 84bd 963a 913c a27c f73d e943 0fbc
000001a0: 73b7 043e 231b 28bc 11f4 f13d 966d 273e
000001b0: 8456 c0bc 1429 c03d 18c8 e4bd 0082 edbd
000001c0: ec2d a83d 594e e5bd edc5 8f3d 1b7d 0abe
000001d0: 637b 42bd 2786 d5bd ccd8 f43c 7579 df3d
000001e0: 9142 953d 6a6a 983d fbc3 9abd f8a4 0b3d
000001f0: 0ae5 d53d e82d 17bd 3b01 b5bd 6662 823c
00000200: 22ab 7dbc 1e5b c83c 354b 123d c05b d63d
00000210: a3c7 06be 2819 0c3e c974 0ebd f732 0dbd
00000220: fbe9 18be 7e00 64bd ba39 813c 23ee 59bc
00000230: 979a 82bc e554 e63d 00e9 1a3e 01a5 9ebd
00000240: 8910 403d 20a7 d03c 2b28 02be 6fd8 cabb
00000250: 8e86 5a3b ace3 133d
0.19191469 0.02348081 -0.035663545 0.038751923 0.03769547 0.04117138 0.05961985 -0.11709163
0.025844697 0.12833245 0.048308544 -0.089069024 -0.09424311 0.13560894 0.04392564 0.17940903
-0.031989973 0.00029924884 -0.09092319 0.094525464 -0.02508659 0.0998731 0.25062424 0.11082115
0.14058451 0.31857434 0.056237508 0.07981029 0.25324807 -0.015298327 0.072789155 0.32708845
0.058484316 0.07028777 -0.041802768 0.04197369 0.12545328 -0.10690089 0.019945037 0.03788214
0.0964731 0.20252536 0.15464942 -0.017718183 0.10456945 -0.023115993 0.067781314 0.042277332
-0.021541817 0.11843454 0.124351524 0.05237978 -0.021745728 -0.13592349 -0.021733629 -0.14438039
-0.10383349 -0.30567938 0.030945169 -0.22498286 -0.2056195 0.00031514035 0.06434874 0.019545658
-0.0050271163 -0.26149312 -0.058575608 -0.0058675203 -0.28095853 -0.08399722 0.09099231 -0.091352776
-0.264506 -0.09538153 0.026370496 -0.17048989 -0.11629166 0.21384192 0.03843064 -0.18697864
-0.24996018 -0.08657127 0.017847296 0.049849566 0.005130304 0.13353167 0.10141617 0.02969077
0.08835407 0.09261341 0.015434638 -0.25746483 0.1139186 0.084865704 -0.2333411 -0.019989876
0.082913384 0.07955577 -0.054998383 -0.18742153 -0.06472581 0.017728131 0.12084319 -0.008744218
0.12960605 -0.010260376 0.1181413 0.16350397 -0.023478754 0.09382835 -0.11170977 -0.11597061
0.08211884 -0.11196584 0.07020173 -0.13524286 -0.047480952 -0.10425978 0.029888533 0.10911838
0.07288087 0.07442172 -0.075569116 0.034092873 0.10444076 -0.036909014 -0.08838125 0.01591606
-0.015482696 0.02445751 0.035716254 0.10466719 -0.13162093 0.13681471 -0.034779344 -0.034472432
-0.14933006 -0.055664532 0.015774596 -0.013301405 -0.015942855 0.11246661 0.15127945 -0.07746316
0.04689077 0.025470316 -0.12710635 -0.0061903517 0.003334436 0.036105797

fc.weight f4 [3, 50]
00000000: c81c 753e 5629 a83c c5c2 6b3b 087d cdbd
00000010: 14a7 a93d 415f 92be 0e27 24be ad12 cfbe
00000020: dd72 cabe 5653 f73e e4df 10be d2cb 91be
00000030: dc9e 513e d436 8e3e bca7 a8be 8b47 82be
00000040: ced1 46be dc93 fa3e 0711 0bbe eb04 8c3e
00000050: d048 c9bd 0e9a ad3d 3f1b a73e 7d4a 633e
00000060: d571 ac3d e12c 833d 0dc6 4cbc 5648 aa3c
00000070: 5cf1 fe3d 4589 293d 7253 ac3e 1e06 b6be
00000080: 76a1 a9be a1c5 0ebe ad92 d53d ffdf 183d
00000090: 94d4 b4be 5a98 64be 850c 9abe c90d a93d
000000a0: 3fbd 9b3e 7d52 143e 647a 1f3e 86b0 0b3d
000000b0: b5b2 61be 54ca 393e b335 06be 831b 2bbe
000000c0: 0dbd d93d 4ab9 583d 5ffa d33c 522d 15be
000000d0: 5b9c 363e 8efb 2c3e d130 2bbe 7403 de3c
000000e0: bf3e 283e cd82 743e 7ae8 753b ac6e 2dbe
000000f0: cadb 2fbe 89ba acbd 2d69 4dbe 00d0 82be
00000100: be2f 053e 9176 9f3e f0c3 293d 3e2b d0bd
00000110: 9a19 6fbe 9dbc 12be 006e 4f3e 050a 0cbe
00000120: f2c7 97bd 988e 493e c813 653e 6ccc 6dbd
00000130: 5389 44bd 1479 41be 382e 9ebd ea3a 463e
00000140: 5bbf c4be 60f9 983e 66bb b2bd 93a6 713e
00000150: aa39 6c3e 9f28 223d 310f c1bd 41f2 a83e
00000160: 8072 223e 20fc 3abc e147 633d 2dbf 82be
00000170: 7b0e 7d3e a1c7 bd3e 63ba 0abd be2f 6cbe
00000180: ad29 43bc 19ea 103e 7ae7 bfbd 5005 93be
00000190: ce92 bfbe 837a aebd 6dea 0bbe bc20 6ebe
000001a0: 52ea 5c3e b1bf 923e 0049 18be 7198 2b3e
000001b0: 867c ff3e ce3d a7be d08e 513e f816 a73e
000001c0: 8760 723d fe14 82bd 4cf0 553e 72ec 87bd
000001d0: a8e8 ae3d 3d7e 2abe 8ece 943d edfe 03be
000001e0: 7870 68be 9da8 5d3e 5ec8 4dbd 8b32 94be
000001f0: 30a8 843c 1525 4c3e f8a2 b03d 3697 8b3e
00000200: b8ce f8bd 483c 53be e4ea d03d 2cf4 90bd
00000210: 0742 993e f685 a1be d962 b0bd 7fef 283e
00000220: b91e dd3e f209 06be 69c1 083e 9820 3bbe
00000230: 8140 91be 0202 1fbd 2b74 34be 7816 57be
00000240: 40e0 a73e 5d1f 383e 7677 12be 5eb6 9dbe
00000250: 4452 253e 082d f93d
0.2393676 0.020527523 0.0035974246 -0.100336134 0.08283821 -0.28588298 -0.16030523 -0.40443936
-0.3954076 0.48305768 -0.14147907 -0.28475815 0.20470756 0.27776206 -0.3294047 -0.25445208
-0.19415972 0.48940933 -0.13580714 0.27347502 -0.09828341 0.08476649 0.32637975 0.22196384
0.08420149 0.06405044 -0.012498391 0.020786446 0.124483794 0.041390676 0.33657414 -0.35551542
-0.33130997 -0.13942577 0.10428367 0.037322994 -0.35318434 -0.22323743 -0.30087677 0.082545824
0.3041782 0.14484592 0.15574032 0.034103893 -0.22040828 0.18143588 -0.13106422 -0.16709714
0.10631762 0.05291108 0.025876222 -0.1456807 0.17833082 0.16892835 -0.1671784 0.027101256
0.16430186 0.23878022 0.00375226 -0.16936749 -0.17173687 -0.08434016 -0.20059653 -0.25549316
0.13006493 0.31145146 0.041446626 -0.10164498 -0.2334961 -0.14329763 0.20256805 -0.13675697
-0.074111834 0.19683301 0.22370827 -0.05805628 -0.047982525 -0.18893844 -0.07723659 0.19358411
-0.38427243 0.29877758 -0.0872715 0.235987 0.23068872 0.03958952 -0.09426726 0.32997325
0.15863991 -0.01141265 0.05548847 -0.2553648 0.24712555 0.37066367 -0.03386916 -0.23065087
-0.011911792 0.14151801 -0.093703225 -0.2871499 -0.3741669 -0.08519461 -0.13663645 -0.23254675
0.21573761 0.28661874 -0.14871597 0.1675737 0.4989969 -0.3266434 0.20464635 0.3263471
0.059174087 -0.0635166 0.20892447 -0.06636895 0.085404694 -0.16649719 0.0726596 -0.12890215
-0.22699153 0.21646352 -0.050239913 -0.2894481 0.01619348 0.1993602 0.08624834 0.27263802
-0.121488035 -0.20628464 0.10201052 -0.07077822 0.29933187 -0.31547517 -0.08612604 0.1649761
0.43187502 -0.13089731 0.1335503 -0.18274152 -0.28369525 -0.038820274 -0.1762244 -0.21004665
0.32788277 0.17980714 -0.14303383 -0.30803198 0.16144663 0.12166792

fc.bias f4 [3]
00000000: 4386 7ebd a564 e9bd 860c 023e
-0.06213976 -0.113961495 0.1270009
